…
2025-06-21 10:49:57.322 | INFO     | model:build_segmenter:45 - number of updated params (proj)    : 4788737
2025-06-21 10:49:57.322 | INFO     | model:build_segmenter:47 - number of fixed params             : 150016257
2025-06-21 10:49:57.561 | INFO     | __main__:main:82 - DataParallel(
  (module): TALENT(
    (txt_backbone): CLIP(
      (transformer): Transformer(
        (resblocks): Sequential(
          (0): ResidualAttentionBlock(
            (attn): MultiheadAttention(
              (out_proj): NonDynamicallyQuantizableLinear(in_features=512, out_features=512, bias=True)
            )
            (ln_1): LayerNorm((512,), eps=1e-05, elementwise_affine=True)
            (mlp): Sequential(
              (c_fc): Linear(in_features=512, out_features=2048, bias=True)
              (gelu): QuickGELU()
              (c_proj): Linear(in_features=2048, out_features=512, bias=True)
            )
            (ln_2): LayerNorm((512,), eps=1e-05, elementwise_affine=True)
          )
          (1): ResidualAttentionBlock(
            (attn): MultiheadAttention(
              (out_proj): NonDynamicallyQuantizableLinear(in_features=512, out_features=512, bias=True)
            )
            (ln_1): LayerNorm((512,), eps=1e-05, elementwise_affine=True)
            (mlp): Sequential(
              (c_fc): Linear(in_features=512, out_features=2048, bias=True)
              (gelu): QuickGELU()
              (c_proj): Linear(in_features=2048, out_features=512, bias=True)
            )
            (ln_2): LayerNorm((512,), eps=1e-05, elementwise_affine=True)
            (adapter): TextAdapter(
              (dense_branch1): BasicConv1d(
                (conv): Conv1d(64, 32, kernel_size=(1,), stride=(1,))
                (bn): BatchNorm1d(32, eps=0.001, momentum=0.1, affine=True, track_running_stats=True)
              )
              (dense_branch2): Sequential(
                (0): BasicConv1d(
                  (conv): Conv1d(96, 4, kernel_size=(1,), stride=(1,))
                  (bn): BatchNorm1d(4, eps=0.001, momentum=0.1, affine=True, track_running_stats=True)
                )
                (1): BasicConv1d(
                  (conv): Conv1d(4, 16, kernel_size=(3,), stride=(1,), padding=(1,))
                  (bn): BatchNorm1d(16, eps=0.001, momentum=0.1, affine=True, track_running_stats=True)
                )
              )
              (dense_branch3): Sequential(
                (0): BasicConv1d(
                  (conv): Conv1d(112, 4, kernel_size=(1,), stride=(1,))
                  (bn): BatchNorm1d(4, eps=0.001, momentum=0.1, affine=True, track_running_stats=True)
                )
                (1): BasicConv1d(
                  (conv): Conv1d(4, 16, kernel_size=(5,), stride=(1,), padding=(2,))
                  (bn): BatchNorm1d(16, eps=0.001, momentum=0.1, affine=True, track_running_stats=True)
                )
              )
              (D_fc1): Linear(in_features=512, out_features=64, bias=True)
              (D_fc2): Linear(in_features=64, out_features=512, bias=True)
            )
          )
          (2): ResidualAttentionBlock(
            (attn): MultiheadAttention(
              (out_proj): NonDynamicallyQuantizableLinear(in_features=512, out_features=512, bias=True)
            )
            (ln_1): LayerNorm((512,), eps=1e-05, elementwise_affine=True)
            (mlp): Sequential(
              (c_fc): Linear(in_features=512, out_features=2048, bias=True)
              (gelu): QuickGELU()
              (c_proj): Linear(in_features=2048, out_features=512, bias=True)
            )
            (ln_2): LayerNorm((512,), eps=1e-05, elementwise_affine=True)
          )
          (3): ResidualAttentionBlock(
            (attn): MultiheadAttention(
              (out_proj): NonDynamicallyQuantizableLinear(in_features=512, out_features=512, bias=True)
            )
            (ln_1): LayerNorm((512,), eps=1e-05, elementwise_affine=True)
            (mlp): Sequential(
              (c_fc): Linear(in_features=512, out_features=2048, bias=True)
              (gelu): QuickGELU()
              (c_proj): Linear(in_features=2048, out_features=512, bias=True)
            )
            (ln_2): LayerNorm((512,), eps=1e-05, elementwise_affine=True)
            (adapter): TextAdapter(
              (dense_branch1): BasicConv1d(
                (conv): Conv1d(64, 32, kernel_size=(1,), stride=(1,))
                (bn): BatchNorm1d(32, eps=0.001, momentum=0.1, affine=True, track_running_stats=True)
              )
              (dense_branch2): Sequential(
                (0): BasicConv1d(
                  (conv): Conv1d(96, 4, kernel_size=(1,), stride=(1,))
                  (bn): BatchNorm1d(4, eps=0.001, momentum=0.1, affine=True, track_running_stats=True)
                )
                (1): BasicConv1d(
                  (conv): Conv1d(4, 16, kernel_size=(3,), stride=(1,), padding=(1,))
                  (bn): BatchNorm1d(16, eps=0.001, momentum=0.1, affine=True, track_running_stats=True)
                )
              )
              (dense_branch3): Sequential(
                (0): BasicConv1d(
                  (conv): Conv1d(112, 4, kernel_size=(1,), stride=(1,))
                  (bn): BatchNorm1d(4, eps=0.001, momentum=0.1, affine=True, track_running_stats=True)
                )
                (1): BasicConv1d(
                  (conv): Conv1d(4, 16, kernel_size=(5,), stride=(1,), padding=(2,))
                  (bn): BatchNorm1d(16, eps=0.001, momentum=0.1, affine=True, track_running_stats=True)
                )
              )
              (D_fc1): Linear(in_features=512, out_features=64, bias=True)
              (D_fc2): Linear(in_features=64, out_features=512, bias=True)
            )
          )
          (4): ResidualAttentionBlock(
            (attn): MultiheadAttention(
              (out_proj): NonDynamicallyQuantizableLinear(in_features=512, out_features=512, bias=True)
            )
            (ln_1): LayerNorm((512,), eps=1e-05, elementwise_affine=True)
            (mlp): Sequential(
              (c_fc): Linear(in_features=512, out_features=2048, bias=True)
              (gelu): QuickGELU()
              (c_proj): Linear(in_features=2048, out_features=512, bias=True)
            )
            (ln_2): LayerNorm((512,), eps=1e-05, elementwise_affine=True)
          )
          (5): ResidualAttentionBlock(
            (attn): MultiheadAttention(
              (out_proj): NonDynamicallyQuantizableLinear(in_features=512, out_features=512, bias=True)
            )
            (ln_1): LayerNorm((512,), eps=1e-05, elementwise_affine=True)
            (mlp): Sequential(
              (c_fc): Linear(in_features=512, out_features=2048, bias=True)
              (gelu): QuickGELU()
              (c_proj): Linear(in_features=2048, out_features=512, bias=True)
            )
            (ln_2): LayerNorm((512,), eps=1e-05, elementwise_affine=True)
            (adapter): TextAdapter(
              (dense_branch1): BasicConv1d(
                (conv): Conv1d(64, 32, kernel_size=(1,), stride=(1,))
                (bn): BatchNorm1d(32, eps=0.001, momentum=0.1, affine=True, track_running_stats=True)
              )
              (dense_branch2): Sequential(
                (0): BasicConv1d(
                  (conv): Conv1d(96, 4, kernel_size=(1,), stride=(1,))
                  (bn): BatchNorm1d(4, eps=0.001, momentum=0.1, affine=True, track_running_stats=True)
                )
                (1): BasicConv1d(
                  (conv): Conv1d(4, 16, kernel_size=(3,), stride=(1,), padding=(1,))
                  (bn): BatchNorm1d(16, eps=0.001, momentum=0.1, affine=True, track_running_stats=True)
                )
              )
              (dense_branch3): Sequential(
                (0): BasicConv1d(
                  (conv): Conv1d(112, 4, kernel_size=(1,), stride=(1,))
                  (bn): BatchNorm1d(4, eps=0.001, momentum=0.1, affine=True, track_running_stats=True)
                )
                (1): BasicConv1d(
                  (conv): Conv1d(4, 16, kernel_size=(5,), stride=(1,), padding=(2,))
                  (bn): BatchNorm1d(16, eps=0.001, momentum=0.1, affine=True, track_running_stats=True)
                )
              )
              (D_fc1): Linear(in_features=512, out_features=64, bias=True)
              (D_fc2): Linear(in_features=64, out_features=512, bias=True)
            )
          )
          (6): ResidualAttentionBlock(
            (attn): MultiheadAttention(
              (out_proj): NonDynamicallyQuantizableLinear(in_features=512, out_features=512, bias=True)
            )
            (ln_1): LayerNorm((512,), eps=1e-05, elementwise_affine=True)
            (mlp): Sequential(
              (c_fc): Linear(in_features=512, out_features=2048, bias=True)
              (gelu): QuickGELU()
              (c_proj): Linear(in_features=2048, out_features=512, bias=True)
            )
            (ln_2): LayerNorm((512,), eps=1e-05, elementwise_affine=True)
          )
          (7): ResidualAttentionBlock(
            (attn): MultiheadAttention(
              (out_proj): NonDynamicallyQuantizableLinear(in_features=512, out_features=512, bias=True)
            )
            (ln_1): LayerNorm((512,), eps=1e-05, elementwise_affine=True)
            (mlp): Sequential(
              (c_fc): Linear(in_features=512, out_features=2048, bias=True)
              (gelu): QuickGELU()
              (c_proj): Linear(in_features=2048, out_features=512, bias=True)
            )
            (ln_2): LayerNorm((512,), eps=1e-05, elementwise_affine=True)
            (adapter): TextAdapter(
              (dense_branch1): BasicConv1d(
                (conv): Conv1d(64, 32, kernel_size=(1,), stride=(1,))
                (bn): BatchNorm1d(32, eps=0.001, momentum=0.1, affine=True, track_running_stats=True)
              )
              (dense_branch2): Sequential(
                (0): BasicConv1d(
                  (conv): Conv1d(96, 4, kernel_size=(1,), stride=(1,))
                  (bn): BatchNorm1d(4, eps=0.001, momentum=0.1, affine=True, track_running_stats=True)
                )
                (1): BasicConv1d(
                  (conv): Conv1d(4, 16, kernel_size=(3,), stride=(1,), padding=(1,))
                  (bn): BatchNorm1d(16, eps=0.001, momentum=0.1, affine=True, track_running_stats=True)
                )
              )
              (dense_branch3): Sequential(
                (0): BasicConv1d(
                  (conv): Conv1d(112, 4, kernel_size=(1,), stride=(1,))
                  (bn): BatchNorm1d(4, eps=0.001, momentum=0.1, affine=True, track_running_stats=True)
                )
                (1): BasicConv1d(
                  (conv): Conv1d(4, 16, kernel_size=(5,), stride=(1,), padding=(2,))
                  (bn): BatchNorm1d(16, eps=0.001, momentum=0.1, affine=True, track_running_stats=True)
                )
              )
              (D_fc1): Linear(in_features=512, out_features=64, bias=True)
              (D_fc2): Linear(in_features=64, out_features=512, bias=True)
            )
          )
          (8): ResidualAttentionBlock(
            (attn): MultiheadAttention(
              (out_proj): NonDynamicallyQuantizableLinear(in_features=512, out_features=512, bias=True)
            )
            (ln_1): LayerNorm((512,), eps=1e-05, elementwise_affine=True)
            (mlp): Sequential(
              (c_fc): Linear(in_features=512, out_features=2048, bias=True)
              (gelu): QuickGELU()
              (c_proj): Linear(in_features=2048, out_features=512, bias=True)
            )
            (ln_2): LayerNorm((512,), eps=1e-05, elementwise_affine=True)
          )
          (9): ResidualAttentionBlock(
            (attn): MultiheadAttention(
              (out_proj): NonDynamicallyQuantizableLinear(in_features=512, out_features=512, bias=True)
            )
            (ln_1): LayerNorm((512,), eps=1e-05, elementwise_affine=True)
            (mlp): Sequential(
              (c_fc): Linear(in_features=512, out_features=2048, bias=True)
              (gelu): QuickGELU()
              (c_proj): Linear(in_features=2048, out_features=512, bias=True)
            )
            (ln_2): LayerNorm((512,), eps=1e-05, elementwise_affine=True)
            (adapter): TextAdapter(
              (dense_branch1): BasicConv1d(
                (conv): Conv1d(64, 32, kernel_size=(1,), stride=(1,))
                (bn): BatchNorm1d(32, eps=0.001, momentum=0.1, affine=True, track_running_stats=True)
              )
              (dense_branch2): Sequential(
                (0): BasicConv1d(
                  (conv): Conv1d(96, 4, kernel_size=(1,), stride=(1,))
                  (bn): BatchNorm1d(4, eps=0.001, momentum=0.1, affine=True, track_running_stats=True)
                )
                (1): BasicConv1d(
                  (conv): Conv1d(4, 16, kernel_size=(3,), stride=(1,), padding=(1,))
                  (bn): BatchNorm1d(16, eps=0.001, momentum=0.1, affine=True, track_running_stats=True)
                )
              )
              (dense_branch3): Sequential(
                (0): BasicConv1d(
                  (conv): Conv1d(112, 4, kernel_size=(1,), stride=(1,))
                  (bn): BatchNorm1d(4, eps=0.001, momentum=0.1, affine=True, track_running_stats=True)
                )
                (1): BasicConv1d(
                  (conv): Conv1d(4, 16, kernel_size=(5,), stride=(1,), padding=(2,))
                  (bn): BatchNorm1d(16, eps=0.001, momentum=0.1, affine=True, track_running_stats=True)
                )
              )
              (D_fc1): Linear(in_features=512, out_features=64, bias=True)
              (D_fc2): Linear(in_features=64, out_features=512, bias=True)
            )
          )
          (10): ResidualAttentionBlock(
            (attn): MultiheadAttention(
              (out_proj): NonDynamicallyQuantizableLinear(in_features=512, out_features=512, bias=True)
            )
            (ln_1): LayerNorm((512,), eps=1e-05, elementwise_affine=True)
            (mlp): Sequential(
              (c_fc): Linear(in_features=512, out_features=2048, bias=True)
              (gelu): QuickGELU()
              (c_proj): Linear(in_features=2048, out_features=512, bias=True)
            )
            (ln_2): LayerNorm((512,), eps=1e-05, elementwise_affine=True)
          )
          (11): ResidualAttentionBlock(
            (attn): MultiheadAttention(
              (out_proj): NonDynamicallyQuantizableLinear(in_features=512, out_features=512, bias=True)
            )
            (ln_1): LayerNorm((512,), eps=1e-05, elementwise_affine=True)
            (mlp): Sequential(
              (c_fc): Linear(in_features=512, out_features=2048, bias=True)
              (gelu): QuickGELU()
              (c_proj): Linear(in_features=2048, out_features=512, bias=True)
            )
            (ln_2): LayerNorm((512,), eps=1e-05, elementwise_affine=True)
            (adapter): TextAdapter(
              (dense_branch1): BasicConv1d(
                (conv): Conv1d(64, 32, kernel_size=(1,), stride=(1,))
                (bn): BatchNorm1d(32, eps=0.001, momentum=0.1, affine=True, track_running_stats=True)
              )
              (dense_branch2): Sequential(
                (0): BasicConv1d(
                  (conv): Conv1d(96, 4, kernel_size=(1,), stride=(1,))
                  (bn): BatchNorm1d(4, eps=0.001, momentum=0.1, affine=True, track_running_stats=True)
                )
                (1): BasicConv1d(
                  (conv): Conv1d(4, 16, kernel_size=(3,), stride=(1,), padding=(1,))
                  (bn): BatchNorm1d(16, eps=0.001, momentum=0.1, affine=True, track_running_stats=True)
                )
              )
              (dense_branch3): Sequential(
                (0): BasicConv1d(
                  (conv): Conv1d(112, 4, kernel_size=(1,), stride=(1,))
                  (bn): BatchNorm1d(4, eps=0.001, momentum=0.1, affine=True, track_running_stats=True)
                )
                (1): BasicConv1d(
                  (conv): Conv1d(4, 16, kernel_size=(5,), stride=(1,), padding=(2,))
                  (bn): BatchNorm1d(16, eps=0.001, momentum=0.1, affine=True, track_running_stats=True)
                )
              )
              (D_fc1): Linear(in_features=512, out_features=64, bias=True)
              (D_fc2): Linear(in_features=64, out_features=512, bias=True)
            )
          )
        )
      )
      (token_embedding): Embedding(49408, 512)
      (ln_final): LayerNorm((512,), eps=1e-05, elementwise_affine=True)
    )
    (fusion): Fusion()
    (dinov2): DinoVisionTransformer(
      (patch_embed): PatchEmbed(
        (proj): Conv2d(3, 768, kernel_size=(14, 14), stride=(14, 14))
        (norm): Identity()
      )
      (blocks): ModuleList(
        (0): NestedTensorBlock(
          (norm1): LayerNorm((768,), eps=1e-06, elementwise_affine=True)
          (attn): MemEffAttention(
            (qkv): Linear(in_features=768, out_features=2304, bias=True)
            (attn_drop): Dropout(p=0.0, inplace=False)
            (proj): Linear(in_features=768, out_features=768, bias=True)
            (proj_drop): Dropout(p=0.0, inplace=False)
          )
          (ls1): LayerScale()
          (drop_path1): Identity()
          (norm2): LayerNorm((768,), eps=1e-06, elementwise_affine=True)
          (mlp): Mlp(
            (fc1): Linear(in_features=768, out_features=3072, bias=True)
            (act): GELU(approximate='none')
            (fc2): Linear(in_features=3072, out_features=768, bias=True)
            (drop): Dropout(p=0.0, inplace=False)
          )
          (ls2): LayerScale()
          (drop_path2): Identity()
        )
        (1): NestedTensorBlock(
          (norm1): LayerNorm((768,), eps=1e-06, elementwise_affine=True)
          (attn): MemEffAttention(
            (qkv): Linear(in_features=768, out_features=2304, bias=True)
            (attn_drop): Dropout(p=0.0, inplace=False)
            (proj): Linear(in_features=768, out_features=768, bias=True)
            (proj_drop): Dropout(p=0.0, inplace=False)
          )
          (ls1): LayerScale()
          (drop_path1): Identity()
          (norm2): LayerNorm((768,), eps=1e-06, elementwise_affine=True)
          (mlp): Mlp(
            (fc1): Linear(in_features=768, out_features=3072, bias=True)
            (act): GELU(approximate='none')
            (fc2): Linear(in_features=3072, out_features=768, bias=True)
            (drop): Dropout(p=0.0, inplace=False)
          )
          (ls2): LayerScale()
          (drop_path2): Identity()
          (adapter): DenseAligner(
            (dense_branch1): BasicConv2d(
              (conv): Conv2d(128, 64, kernel_size=(1, 1), stride=(1, 1))
              (bn): BatchNorm2d(64, eps=0.001, momentum=0.1, affine=True, track_running_stats=True)
            )
            (dense_branch2): Sequential(
              (0): BasicConv2d(
                (conv): Conv2d(192, 8, kernel_size=(1, 1), stride=(1, 1))
                (bn): BatchNorm2d(8, eps=0.001, momentum=0.1, affine=True, track_running_stats=True)
              )
              (1): BasicConv2d(
                (conv): Conv2d(8, 32, kernel_size=(3, 3), stride=(1, 1), padding=(1, 1))
                (bn): BatchNorm2d(32, eps=0.001, momentum=0.1, affine=True, track_running_stats=True)
              )
            )
            (dense_branch3): Sequential(
              (0): BasicConv2d(
                (conv): Conv2d(224, 8, kernel_size=(1, 1), stride=(1, 1))
                (bn): BatchNorm2d(8, eps=0.001, momentum=0.1, affine=True, track_running_stats=True)
              )
              (1): BasicConv2d(
                (conv): Conv2d(8, 32, kernel_size=(5, 5), stride=(1, 1), padding=(2, 2))
                (bn): BatchNorm2d(32, eps=0.001, momentum=0.1, affine=True, track_running_stats=True)
              )
            )
            (D_fc1): Linear(in_features=768, out_features=128, bias=True)
            (D_fc2): Linear(in_features=128, out_features=768, bias=True)
            (cross): CostVolume(
              (image_proj): Linear(in_features=128, out_features=128, bias=True)
              (text_proj): Linear(in_features=512, out_features=128, bias=True)
              (cost_proj): Linear(in_features=17, out_features=128, bias=True)
              (back_proj): Linear(in_features=128, out_features=128, bias=True)
            )
          )
          (drop_path): Identity()
          (ls_gate): LayerScale()
        )
        (2): NestedTensorBlock(
          (norm1): LayerNorm((768,), eps=1e-06, elementwise_affine=True)
          (attn): MemEffAttention(
            (qkv): Linear(in_features=768, out_features=2304, bias=True)
            (attn_drop): Dropout(p=0.0, inplace=False)
            (proj): Linear(in_features=768, out_features=768, bias=True)
            (proj_drop): Dropout(p=0.0, inplace=False)
          )
          (ls1): LayerScale()
          (drop_path1): Identity()
          (norm2): LayerNorm((768,), eps=1e-06, elementwise_affine=True)
          (mlp): Mlp(
            (fc1): Linear(in_features=768, out_features=3072, bias=True)
            (act): GELU(approximate='none')
            (fc2): Linear(in_features=3072, out_features=768, bias=True)
            (drop): Dropout(p=0.0, inplace=False)
          )
          (ls2): LayerScale()
          (drop_path2): Identity()
        )
        (3): NestedTensorBlock(
          (norm1): LayerNorm((768,), eps=1e-06, elementwise_affine=True)
          (attn): MemEffAttention(
            (qkv): Linear(in_features=768, out_features=2304, bias=True)
            (attn_drop): Dropout(p=0.0, inplace=False)
            (proj): Linear(in_features=768, out_features=768, bias=True)
            (proj_drop): Dropout(p=0.0, inplace=False)
          )
          (ls1): LayerScale()
          (drop_path1): Identity()
          (norm2): LayerNorm((768,), eps=1e-06, elementwise_affine=True)
          (mlp): Mlp(
            (fc1): Linear(in_features=768, out_features=3072, bias=True)
            (act): GELU(approximate='none')
            (fc2): Linear(in_features=3072, out_features=768, bias=True)
            (drop): Dropout(p=0.0, inplace=False)
          )
          (ls2): LayerScale()
          (drop_path2): Identity()
          (adapter): DenseAligner(
            (dense_branch1): BasicConv2d(
              (conv): Conv2d(128, 64, kernel_size=(1, 1), stride=(1, 1))
              (bn): BatchNorm2d(64, eps=0.001, momentum=0.1, affine=True, track_running_stats=True)
            )
            (dense_branch2): Sequential(
              (0): BasicConv2d(
                (conv): Conv2d(192, 8, kernel_size=(1, 1), stride=(1, 1))
                (bn): BatchNorm2d(8, eps=0.001, momentum=0.1, affine=True, track_running_stats=True)
              )
              (1): BasicConv2d(
                (conv): Conv2d(8, 32, kernel_size=(3, 3), stride=(1, 1), padding=(1, 1))
                (bn): BatchNorm2d(32, eps=0.001, momentum=0.1, affine=True, track_running_stats=True)
              )
            )
            (dense_branch3): Sequential(
              (0): BasicConv2d(
                (conv): Conv2d(224, 8, kernel_size=(1, 1), stride=(1, 1))
                (bn): BatchNorm2d(8, eps=0.001, momentum=0.1, affine=True, track_running_stats=True)
              )
              (1): BasicConv2d(
                (conv): Conv2d(8, 32, kernel_size=(5, 5), stride=(1, 1), padding=(2, 2))
                (bn): BatchNorm2d(32, eps=0.001, momentum=0.1, affine=True, track_running_stats=True)
              )
            )
            (D_fc1): Linear(in_features=768, out_features=128, bias=True)
            (D_fc2): Linear(in_features=128, out_features=768, bias=True)
            (cross): CostVolume(
              (image_proj): Linear(in_features=128, out_features=128, bias=True)
              (text_proj): Linear(in_features=512, out_features=128, bias=True)
              (cost_proj): Linear(in_features=17, out_features=128, bias=True)
              (back_proj): Linear(in_features=128, out_features=128, bias=True)
            )
          )
          (drop_path): Identity()
          (ls_gate): LayerScale()
        )
        (4): NestedTensorBlock(
          (norm1): LayerNorm((768,), eps=1e-06, elementwise_affine=True)
          (attn): MemEffAttention(
            (qkv): Linear(in_features=768, out_features=2304, bias=True)
            (attn_drop): Dropout(p=0.0, inplace=False)
            (proj): Linear(in_features=768, out_features=768, bias=True)
            (proj_drop): Dropout(p=0.0, inplace=False)
          )
          (ls1): LayerScale()
          (drop_path1): Identity()
          (norm2): LayerNorm((768,), eps=1e-06, elementwise_affine=True)
          (mlp): Mlp(
            (fc1): Linear(in_features=768, out_features=3072, bias=True)
            (act): GELU(approximate='none')
            (fc2): Linear(in_features=3072, out_features=768, bias=True)
            (drop): Dropout(p=0.0, inplace=False)
          )
          (ls2): LayerScale()
          (drop_path2): Identity()
        )
        (5): NestedTensorBlock(
          (norm1): LayerNorm((768,), eps=1e-06, elementwise_affine=True)
          (attn): MemEffAttention(
            (qkv): Linear(in_features=768, out_features=2304, bias=True)
            (attn_drop): Dropout(p=0.0, inplace=False)
            (proj): Linear(in_features=768, out_features=768, bias=True)
            (proj_drop): Dropout(p=0.0, inplace=False)
          )
          (ls1): LayerScale()
          (drop_path1): Identity()
          (norm2): LayerNorm((768,), eps=1e-06, elementwise_affine=True)
          (mlp): Mlp(
            (fc1): Linear(in_features=768, out_features=3072, bias=True)
            (act): GELU(approximate='none')
            (fc2): Linear(in_features=3072, out_features=768, bias=True)
            (drop): Dropout(p=0.0, inplace=False)
          )
          (ls2): LayerScale()
          (drop_path2): Identity()
          (adapter): DenseAligner(
            (dense_branch1): BasicConv2d(
              (conv): Conv2d(128, 64, kernel_size=(1, 1), stride=(1, 1))
              (bn): BatchNorm2d(64, eps=0.001, momentum=0.1, affine=True, track_running_stats=True)
            )
            (dense_branch2): Sequential(
              (0): BasicConv2d(
                (conv): Conv2d(192, 8, kernel_size=(1, 1), stride=(1, 1))
                (bn): BatchNorm2d(8, eps=0.001, momentum=0.1, affine=True, track_running_stats=True)
              )
              (1): BasicConv2d(
                (conv): Conv2d(8, 32, kernel_size=(3, 3), stride=(1, 1), padding=(1, 1))
                (bn): BatchNorm2d(32, eps=0.001, momentum=0.1, affine=True, track_running_stats=True)
              )
            )
            (dense_branch3): Sequential(
              (0): BasicConv2d(
                (conv): Conv2d(224, 8, kernel_size=(1, 1), stride=(1, 1))
                (bn): BatchNorm2d(8, eps=0.001, momentum=0.1, affine=True, track_running_stats=True)
              )
              (1): BasicConv2d(
                (conv): Conv2d(8, 32, kernel_size=(5, 5), stride=(1, 1), padding=(2, 2))
                (bn): BatchNorm2d(32, eps=0.001, momentum=0.1, affine=True, track_running_stats=True)
              )
            )
            (D_fc1): Linear(in_features=768, out_features=128, bias=True)
            (D_fc2): Linear(in_features=128, out_features=768, bias=True)
            (cross): CostVolume(
              (image_proj): Linear(in_features=128, out_features=128, bias=True)
              (text_proj): Linear(in_features=512, out_features=128, bias=True)
              (cost_proj): Linear(in_features=17, out_features=128, bias=True)
              (back_proj): Linear(in_features=128, out_features=128, bias=True)
            )
          )
          (drop_path): Identity()
          (ls_gate): LayerScale()
        )
        (6): NestedTensorBlock(
          (norm1): LayerNorm((768,), eps=1e-06, elementwise_affine=True)
          (attn): MemEffAttention(
            (qkv): Linear(in_features=768, out_features=2304, bias=True)
            (attn_drop): Dropout(p=0.0, inplace=False)
            (proj): Linear(in_features=768, out_features=768, bias=True)
            (proj_drop): Dropout(p=0.0, inplace=False)
          )
          (ls1): LayerScale()
          (drop_path1): Identity()
          (norm2): LayerNorm((768,), eps=1e-06, elementwise_affine=True)
          (mlp): Mlp(
            (fc1): Linear(in_features=768, out_features=3072, bias=True)
            (act): GELU(approximate='none')
            (fc2): Linear(in_features=3072, out_features=768, bias=True)
            (drop): Dropout(p=0.0, inplace=False)
          )
          (ls2): LayerScale()
          (drop_path2): Identity()
        )
        (7): NestedTensorBlock(
          (norm1): LayerNorm((768,), eps=1e-06, elementwise_affine=True)
          (attn): MemEffAttention(
            (qkv): Linear(in_features=768, out_features=2304, bias=True)
            (attn_drop): Dropout(p=0.0, inplace=False)
            (proj): Linear(in_features=768, out_features=768, bias=True)
            (proj_drop): Dropout(p=0.0, inplace=False)
          )
          (ls1): LayerScale()
          (drop_path1): Identity()
          (norm2): LayerNorm((768,), eps=1e-06, elementwise_affine=True)
          (mlp): Mlp(
            (fc1): Linear(in_features=768, out_features=3072, bias=True)
            (act): GELU(approximate='none')
            (fc2): Linear(in_features=3072, out_features=768, bias=True)
            (drop): Dropout(p=0.0, inplace=False)
          )
          (ls2): LayerScale()
          (drop_path2): Identity()
          (adapter): DenseAligner(
            (dense_branch1): BasicConv2d(
              (conv): Conv2d(128, 64, kernel_size=(1, 1), stride=(1, 1))
              (bn): BatchNorm2d(64, eps=0.001, momentum=0.1, affine=True, track_running_stats=True)
            )
            (dense_branch2): Sequential(
              (0): BasicConv2d(
                (conv): Conv2d(192, 8, kernel_size=(1, 1), stride=(1, 1))
                (bn): BatchNorm2d(8, eps=0.001, momentum=0.1, affine=True, track_running_stats=True)
              )
              (1): BasicConv2d(
                (conv): Conv2d(8, 32, kernel_size=(3, 3), stride=(1, 1), padding=(1, 1))
                (bn): BatchNorm2d(32, eps=0.001, momentum=0.1, affine=True, track_running_stats=True)
              )
            )
            (dense_branch3): Sequential(
              (0): BasicConv2d(
                (conv): Conv2d(224, 8, kernel_size=(1, 1), stride=(1, 1))
                (bn): BatchNorm2d(8, eps=0.001, momentum=0.1, affine=True, track_running_stats=True)
              )
              (1): BasicConv2d(
                (conv): Conv2d(8, 32, kernel_size=(5, 5), stride=(1, 1), padding=(2, 2))
                (bn): BatchNorm2d(32, eps=0.001, momentum=0.1, affine=True, track_running_stats=True)
              )
            )
            (D_fc1): Linear(in_features=768, out_features=128, bias=True)
            (D_fc2): Linear(in_features=128, out_features=768, bias=True)
            (cross): CostVolume(
              (image_proj): Linear(in_features=128, out_features=128, bias=True)
              (text_proj): Linear(in_features=512, out_features=128, bias=True)
              (cost_proj): Linear(in_features=17, out_features=128, bias=True)
              (back_proj): Linear(in_features=128, out_features=128, bias=True)
            )
          )
          (drop_path): Identity()
          (ls_gate): LayerScale()
        )
        (8): NestedTensorBlock(
          (norm1): LayerNorm((768,), eps=1e-06, elementwise_affine=True)
          (attn): MemEffAttention(
            (qkv): Linear(in_features=768, out_features=2304, bias=True)
            (attn_drop): Dropout(p=0.0, inplace=False)
            (proj): Linear(in_features=768, out_features=768, bias=True)
            (proj_drop): Dropout(p=0.0, inplace=False)
          )
          (ls1): LayerScale()
          (drop_path1): Identity()
          (norm2): LayerNorm((768,), eps=1e-06, elementwise_affine=True)
          (mlp): Mlp(
            (fc1): Linear(in_features=768, out_features=3072, bias=True)
            (act): GELU(approximate='none')
            (fc2): Linear(in_features=3072, out_features=768, bias=True)
            (drop): Dropout(p=0.0, inplace=False)
          )
          (ls2): LayerScale()
          (drop_path2): Identity()
        )
        (9): NestedTensorBlock(
          (norm1): LayerNorm((768,), eps=1e-06, elementwise_affine=True)
          (attn): MemEffAttention(
            (qkv): Linear(in_features=768, out_features=2304, bias=True)
            (attn_drop): Dropout(p=0.0, inplace=False)
            (proj): Linear(in_features=768, out_features=768, bias=True)
            (proj_drop): Dropout(p=0.0, inplace=False)
          )
          (ls1): LayerScale()
          (drop_path1): Identity()
          (norm2): LayerNorm((768,), eps=1e-06, elementwise_affine=True)
          (mlp): Mlp(
            (fc1): Linear(in_features=768, out_features=3072, bias=True)
            (act): GELU(approximate='none')
            (fc2): Linear(in_features=3072, out_features=768, bias=True)
            (drop): Dropout(p=0.0, inplace=False)
          )
          (ls2): LayerScale()
          (drop_path2): Identity()
          (adapter): DenseAligner(
            (dense_branch1): BasicConv2d(
              (conv): Conv2d(128, 64, kernel_size=(1, 1), stride=(1, 1))
              (bn): BatchNorm2d(64, eps=0.001, momentum=0.1, affine=True, track_running_stats=True)
            )
            (dense_branch2): Sequential(
              (0): BasicConv2d(
                (conv): Conv2d(192, 8, kernel_size=(1, 1), stride=(1, 1))
                (bn): BatchNorm2d(8, eps=0.001, momentum=0.1, affine=True, track_running_stats=True)
              )
              (1): BasicConv2d(
                (conv): Conv2d(8, 32, kernel_size=(3, 3), stride=(1, 1), padding=(1, 1))
                (bn): BatchNorm2d(32, eps=0.001, momentum=0.1, affine=True, track_running_stats=True)
              )
            )
            (dense_branch3): Sequential(
              (0): BasicConv2d(
                (conv): Conv2d(224, 8, kernel_size=(1, 1), stride=(1, 1))
                (bn): BatchNorm2d(8, eps=0.001, momentum=0.1, affine=True, track_running_stats=True)
              )
              (1): BasicConv2d(
                (conv): Conv2d(8, 32, kernel_size=(5, 5), stride=(1, 1), padding=(2, 2))
                (bn): BatchNorm2d(32, eps=0.001, momentum=0.1, affine=True, track_running_stats=True)
              )
            )
            (D_fc1): Linear(in_features=768, out_features=128, bias=True)
            (D_fc2): Linear(in_features=128, out_features=768, bias=True)
            (cross): CostVolume(
              (image_proj): Linear(in_features=128, out_features=128, bias=True)
              (text_proj): Linear(in_features=512, out_features=128, bias=True)
              (cost_proj): Linear(in_features=17, out_features=128, bias=True)
              (back_proj): Linear(in_features=128, out_features=128, bias=True)
            )
          )
          (drop_path): Identity()
          (ls_gate): LayerScale()
        )
        (10): NestedTensorBlock(
          (norm1): LayerNorm((768,), eps=1e-06, elementwise_affine=True)
          (attn): MemEffAttention(
            (qkv): Linear(in_features=768, out_features=2304, bias=True)
            (attn_drop): Dropout(p=0.0, inplace=False)
            (proj): Linear(in_features=768, out_features=768, bias=True)
            (proj_drop): Dropout(p=0.0, inplace=False)
          )
          (ls1): LayerScale()
          (drop_path1): Identity()
          (norm2): LayerNorm((768,), eps=1e-06, elementwise_affine=True)
          (mlp): Mlp(
            (fc1): Linear(in_features=768, out_features=3072, bias=True)
            (act): GELU(approximate='none')
            (fc2): Linear(in_features=3072, out_features=768, bias=True)
            (drop): Dropout(p=0.0, inplace=False)
          )
          (ls2): LayerScale()
          (drop_path2): Identity()
        )
        (11): NestedTensorBlock(
          (norm1): LayerNorm((768,), eps=1e-06, elementwise_affine=True)
          (attn): MemEffAttention(
            (qkv): Linear(in_features=768, out_features=2304, bias=True)
            (attn_drop): Dropout(p=0.0, inplace=False)
            (proj): Linear(in_features=768, out_features=768, bias=True)
            (proj_drop): Dropout(p=0.0, inplace=False)
          )
          (ls1): LayerScale()
          (drop_path1): Identity()
          (norm2): LayerNorm((768,), eps=1e-06, elementwise_affine=True)
          (mlp): Mlp(
            (fc1): Linear(in_features=768, out_features=3072, bias=True)
            (act): GELU(approximate='none')
            (fc2): Linear(in_features=3072, out_features=768, bias=True)
            (drop): Dropout(p=0.0, inplace=False)
          )
          (ls2): LayerScale()
          (drop_path2): Identity()
          (adapter): DenseAligner(
            (dense_branch1): BasicConv2d(
              (conv): Conv2d(128, 64, kernel_size=(1, 1), stride=(1, 1))
              (bn): BatchNorm2d(64, eps=0.001, momentum=0.1, affine=True, track_running_stats=True)
            )
            (dense_branch2): Sequential(
              (0): BasicConv2d(
                (conv): Conv2d(192, 8, kernel_size=(1, 1), stride=(1, 1))
                (bn): BatchNorm2d(8, eps=0.001, momentum=0.1, affine=True, track_running_stats=True)
              )
              (1): BasicConv2d(
                (conv): Conv2d(8, 32, kernel_size=(3, 3), stride=(1, 1), padding=(1, 1))
                (bn): BatchNorm2d(32, eps=0.001, momentum=0.1, affine=True, track_running_stats=True)
              )
            )
            (dense_branch3): Sequential(
              (0): BasicConv2d(
                (conv): Conv2d(224, 8, kernel_size=(1, 1), stride=(1, 1))
                (bn): BatchNorm2d(8, eps=0.001, momentum=0.1, affine=True, track_running_stats=True)
              )
              (1): BasicConv2d(
                (conv): Conv2d(8, 32, kernel_size=(5, 5), stride=(1, 1), padding=(2, 2))
                (bn): BatchNorm2d(32, eps=0.001, momentum=0.1, affine=True, track_running_stats=True)
              )
            )
            (D_fc1): Linear(in_features=768, out_features=128, bias=True)
            (D_fc2): Linear(in_features=128, out_features=768, bias=True)
            (cross): CostVolume(
              (image_proj): Linear(in_features=128, out_features=128, bias=True)
              (text_proj): Linear(in_features=512, out_features=128, bias=True)
              (cost_proj): Linear(in_features=17, out_features=128, bias=True)
              (back_proj): Linear(in_features=128, out_features=128, bias=True)
            )
          )
          (drop_path): Identity()
          (ls_gate): LayerScale()
        )
      )
      (norm): LayerNorm((768,), eps=1e-06, elementwise_affine=True)
      (head): Identity()
    )
    (neck): Neck_CostAffinity(
      (fusion3): CostVolume(
        (txt_lin): Sequential(
          (0): Linear(in_features=512, out_features=512, bias=False)
          (1): ReLU(inplace=True)
        )
        (out_conv): Sequential(
          (0): Conv2d(1, 512, kernel_size=(1, 1), stride=(1, 1), bias=False)
          (1): BatchNorm2d(512, eps=1e-05, momentum=0.1, affine=True, track_running_stats=True)
          (2): ReLU(inplace=True)
        )
      )
      (fusion4): CostVolume(
        (txt_lin): Sequential(
          (0): Linear(in_features=512, out_features=512, bias=False)
          (1): ReLU(inplace=True)
        )
        (out_conv): Sequential(
          (0): Conv2d(1, 512, kernel_size=(1, 1), stride=(1, 1), bias=False)
          (1): BatchNorm2d(512, eps=1e-05, momentum=0.1, affine=True, track_running_stats=True)
          (2): ReLU(inplace=True)
        )
      )
      (fusion5): CostVolume(
        (txt_lin): Sequential(
          (0): Linear(in_features=512, out_features=512, bias=False)
          (1): ReLU(inplace=True)
        )
        (out_conv): Sequential(
          (0): Conv2d(1, 512, kernel_size=(1, 1), stride=(1, 1), bias=False)
          (1): BatchNorm2d(512, eps=1e-05, momentum=0.1, affine=True, track_running_stats=True)
          (2): ReLU(inplace=True)
        )
      )
      (txt_proj): Linear(in_features=512, out_features=512, bias=True)
      (f3_proj): Sequential(
        (0): Conv2d(768, 512, kernel_size=(1, 1), stride=(1, 1), bias=False)
        (1): BatchNorm2d(512, eps=1e-05, momentum=0.1, affine=True, track_running_stats=True)
        (2): ReLU(inplace=True)
      )
      (f4_proj): Sequential(
        (0): Conv2d(768, 512, kernel_size=(1, 1), stride=(1, 1), bias=False)
        (1): BatchNorm2d(512, eps=1e-05, momentum=0.1, affine=True, track_running_stats=True)
        (2): ReLU(inplace=True)
      )
      (f5_proj): Sequential(
        (0): ConvTranspose2d(768, 512, kernel_size=(1, 1), stride=(1, 1), bias=False)
        (1): BatchNorm2d(512, eps=1e-05, momentum=0.1, affine=True, track_running_stats=True)
        (2): ReLU(inplace=True)
      )
      (aggr): Sequential(
        (0): Conv2d(1536, 512, kernel_size=(1, 1), stride=(1, 1), bias=False)
        (1): BatchNorm2d(512, eps=1e-05, momentum=0.1, affine=True, track_running_stats=True)
        (2): ReLU(inplace=True)
      )
      (coordconv): Sequential(
        (0): CoordConv(
          (conv1): Sequential(
            (0): Conv2d(514, 512, kernel_size=(3, 3), stride=(1, 1), padding=(1, 1), bias=False)
            (1): BatchNorm2d(512, eps=1e-05, momentum=0.1, affine=True, track_running_stats=True)
            (2): ReLU(inplace=True)
          )
        )
        (1): Sequential(
          (0): Conv2d(512, 512, kernel_size=(3, 3), stride=(1, 1), padding=(1, 1), bias=False)
          (1): BatchNorm2d(512, eps=1e-05, momentum=0.1, affine=True, track_running_stats=True)
          (2): ReLU(inplace=True)
        )
      )
    )
    (decoder): Decoder(
      (layers): ModuleList(
        (0-2): 3 x DecoderLayer(
          (self_attn_norm): LayerNorm((512,), eps=1e-05, elementwise_affine=True)
          (cross_attn_norm): LayerNorm((512,), eps=1e-05, elementwise_affine=True)
          (self_attn): MultiheadAttention(
            (out_proj): NonDynamicallyQuantizableLinear(in_features=512, out_features=512, bias=True)
          )
          (multihead_attn): MultiheadAttention(
            (out_proj): NonDynamicallyQuantizableLinear(in_features=512, out_features=512, bias=True)
          )
          (ffn): Sequential(
            (0): Linear(in_features=512, out_features=512, bias=True)
            (1): ReLU(inplace=True)
            (2): Dropout(p=0.1, inplace=False)
            (3): LayerNorm((512,), eps=1e-05, elementwise_affine=True)
            (4): Linear(in_features=512, out_features=512, bias=True)
          )
          (norm1): LayerNorm((512,), eps=1e-05, elementwise_affine=True)
          (norm2): LayerNorm((512,), eps=1e-05, elementwise_affine=True)
          (norm3): LayerNorm((512,), eps=1e-05, elementwise_affine=True)
          (dropout1): Dropout(p=0.1, inplace=False)
          (dropout2): Dropout(p=0.1, inplace=False)
          (dropout3): Dropout(p=0.1, inplace=False)
        )
      )
      (norm): LayerNorm((512,), eps=1e-05, elementwise_affine=True)
    )
    (proj): Projector(
      (vis): Sequential(
        (0): Upsample(scale_factor=2.0, mode='bilinear')
        (1): Sequential(
          (0): Conv2d(512, 512, kernel_size=(3, 3), stride=(1, 1), padding=(1, 1), bias=False)
          (1): BatchNorm2d(512, eps=1e-05, momentum=0.1, affine=True, track_running_stats=True)
          (2): ReLU(inplace=True)
        )
        (2): Upsample(scale_factor=2.0, mode='bilinear')
        (3): Sequential(
          (0): Conv2d(512, 256, kernel_size=(3, 3), stride=(1, 1), padding=(1, 1), bias=False)
          (1): BatchNorm2d(256, eps=1e-05, momentum=0.1, affine=True, track_running_stats=True)
          (2): ReLU(inplace=True)
        )
        (4): Conv2d(256, 256, kernel_size=(1, 1), stride=(1, 1))
      )
      (txt): Linear(in_features=512, out_features=2305, bias=True)
    )
  )
)
2025-06-21 10:49:57.567 | INFO     | __main__:main:86 - => loading checkpoint 'exp/refcoco+/TALENT_base_128_8_512_3_2025-06-20-10-36-44/best_model.pth'
2025-06-21 10:49:58.680 | INFO     | __main__:main:89 - => loaded checkpoint 'exp/refcoco+/TALENT_base_128_8_512_3_2025-06-20-10-36-44/best_model.pth'
2025-06-21 10:55:07.892 | INFO     | engine.engine:inference:219 - => Metric Calculation <=
…
